models/expB.pth (torch_old, 383419 bytes, 60 tensors)

exp_avg_sq f4 [8]
0	0x425549cf	53.32208
1	0x4199e14d	19.23501
2	0x42d87162	108.22145
3	0x3f7f27a8	0.99669886
4	0x4180f44a	16.119282
5	0x4299d2c0	76.91162
6	0x417e5cdc	15.897671
7	0x418ba82d	17.457117

exp_avg f4 [8]
0	0x3f92065e	1.1408193
1	0x3efeb427	0.4974682
2	0x3f3d15e4	0.7386153
3	0x3ed5d863	0.41766652
4	0x3e4cac5c	0.19987625
5	0x3fbe1865	1.4851195
6	0x3e52a0ee	0.20569202
7	0xbf256c84	-0.64618707

exp_avg_sq f4 [16]
0	0x3da99647	0.08280616
1	0x3d673cfd	0.056454647
2	0x3d905720	0.07047868
3	0x3d0212c3	0.031756174
4	0x3ddfb7c4	0.109237224
5	0x3e0d4f55	0.13799794
6	0x3d930554	0.07178751
7	0x3e069452	0.13142517
8	0x3dd6b9f4	0.104846865
9	0x3d55db2c	0.05221097
10	0x3d9296ca	0.07157667
11	0x3da3dfd1	0.08001674
12	0x3daa9c6a	0.08330615
13	0x3d913015	0.07089249
14	0x3de8556f	0.1134442
15	0x3d3c917a	0.046037175

exp_avg f4 [16]
0	0x3cfb7f9e	0.030700501
1	0x3d54a351	0.051913563
2	0x3d2dbece	0.042418294
3	0x3bfc1959	0.0076934514
4	0x3d056c89	0.03257421
5	0xbb939771	-0.004504137
6	0xbd271f52	-0.040801354
7	0xbd271eb5	-0.04080077
8	0x3d9bfc3b	0.076164685
9	0xbd2b8e5f	-0.041883823
10	0x3ce2d346	0.027688634
11	0xbcab653d	-0.020922298
12	0x3c9221bb	0.01783835
13	0xbcaa1da5	-0.020766089
14	0x3dcbfbe7	0.09960156
15	0xbd1bb3db	-0.03801332

exp_avg_sq f4 [8, 3, 5, 5]
0	0x409bb8cb	4.8663077
1	0x409bd542	4.8697824
2	0x409c6ac5	4.8880334
3	0x409c15f4	4.87768
4	0x409af3f2	4.8422785
5	0x409a9f11	4.8319173
6	0x409aa480	4.8325806
7	0x409ac1db	4.836164
8	0x409a4a35	4.8215585
9	0x40996428	4.793476
10	0x4099a953	4.8019195
11	0x40996bc6	4.794406
12	0x40994c7b	4.790586
13	0x409865c3	4.762422
14	0x4097a817	4.739269
15	0x4098ae3c	4.771269
16	0x4098500d	4.759772
17	0x40980c51	4.7515035
18	0x40977bda	4.7338686
19	0x4096d2b5	4.713221
20	0x40978eec	4.7361965
21	0x409772d3	4.7327666
22	0x40974908	4.727665
23	0x40966fcb	4.7011466
24	0x409597b1	4.674767
25	0x4047ecf5	3.1238377
26	0x404966d2	3.1469007
27	0x404b5ad7	3.1774194
28	0x404b543f	3.177017
29	0x404ae154	3.170003
30	0x4047228f	3.1114843
31	0x4048a63f	3.1351469
32	0x4049fbd7	3.155996
33	0x4049e659	3.1546843
34	0x4049b355	3.1515706
35	0x40466b19	3.1002867
36	0x40476d28	3.1160374
37	0x4048bc20	3.1364822
38	0x40484589	3.129244
39	0x4047fc4d	3.1247742
40	0x4045bd0b	3.0896633
41	0x4046a1ef	3.1036336
42	0x40479a39	3.118788
43	0x4047885c	3.1176977
44	0x4047469a	3.1136842
45	0x4044e0d6	3.076223
46	0x4045bece	3.0897708
47	0x40466066	3.0996337
48	0x4046521b	3.0987613
49	0x40461caf	3.0955007
50	0x3fe5c0b6	1.7949436
51	0x3fe775ab	1.8082784
52	0x3febf999	1.8435546
53	0x3fed7eb5	1.8554293
54	0x3fee2720	1.860569
55	0x3fe4d7b9	1.7878333
56	0x3fe72ff4	1.8061509
57	0x3feb9e95	1.840777
58	0x3fed741c	1.8551059
59	0x3fedb062	1.8569453
60	0x3fe49d18	1.7860441
61	0x3fe76f91	1.8080922
62	0x3feb66ee	1.8390787
63	0x3fec5e43	1.8466266
64	0x3fec72a1	1.8472482
65	0x3fe51e13	1.7899803
66	0x3fe74d2d	1.8070427
67	0x3feb3423	1.8375286
68	0x3fec6248	1.8467493
69	0x3fec222a	1.8447926
70	0x3fe53764	1.7907529
71	0x3fe6065f	1.7970694
72	0x3fe99052	1.8247168
73	0x3feb6d1d	1.8392674
74	0x3feb3e91	1.8378469
75	0x3d8dac14	0.06917587
76	0x3d8bb7f4	0.06822196
77	0x3d9901d3	0.07471051
78	0x3db6efa0	0.089324236
79	0x3dde3b67	0.10851174
80	0x3d89ba34	0.067249686
81	0x3d86cb6e	0.0658177
82	0x3d990b89	0.07472903
83	0x3dba773f	0.09104776
84	0x3de28290	0.11060059
85	0x3d92c7b9	0.07167
86	0x3d91de49	0.07122476
87	0x3da7fa46	0.08202033
88	0x3dc8079e	0.09767078
89	0x3df0ebce	0.11763726
90	0x3dafcab0	0.085835814
91	0x3db48e81	0.08816243
92	0x3dca3aca	0.098744944
93	0x3de4a38f	0.11164009
94	0x3e05cb0c	0.13065737
95	0x3dd0f9a3	0.102038644
96	0x3dd5e69d	0.104443766
97	0x3de22691	0.11042512
98	0x3df78aef	0.12087046
99	0x3e0e3e0d	0.13890858
100	0x3da0c09c	0.07849237
101	0x3d9e97bb	0.07743784
102	0x3da885a2	0.082286134
103	0x3dbeb812	0.093124524
104	0x3dd9d822	0.10636927
105	0x3d9e6c47	0.07735496
106	0x3d9a8f2e	0.075468406
107	0x3da896e3	0.08231904
108	0x3dc1b4b6	0.09458296
109	0x3dde1d72	0.1084546
110	0x3da5f5ee	0.08103548
111	0x3da3b58d	0.079936124
112	0x3db39f38	0.08770603
113	0x3dcb520f	0.09927761
114	0x3de87e26	0.11352186
115	0x3dbd4af7	0.09242814
116	0x3dc057b4	0.09391728
117	0x3dd07713	0.101789616
118	0x3de252b9	0.11050934
119	0x3dfd7de9	0.12377531
120	0x3dd96b4e	0.1061617
121	0x3ddc7047	0.10763603
122	0x3de57fed	0.112060405
123	0x3df2cf27	0.118559174
124	0x3e05d1a8	0.13068259
125	0x3dcabd74	0.098994166
126	0x3dc8467a	0.09779067
127	0x3dd12829	0.10212738
128	0x3de3c49d	0.111214854
129	0x3dfa0dba	0.122096494
130	0x3dc8d745	0.098066844
131	0x3dc54d6f	0.0963391
132	0x3dd15ca5	0.10222749
133	0x3de5cf6e	0.11221205
134	0x3dfd7e08	0.12377554
135	0x3dcf513f	0.10122918
136	0x3dcd6cc3	0.1003051
137	0x3ddaabe1	0.106773145
138	0x3ded21ab	0.11578687
139	0x3e0303b9	0.12794389
140	0x3de3ca20	0.11122537
141	0x3de6ad58	0.112635314
142	0x3df34599	0.11878509
143	0x3e008776	0.12551674
144	0x3e0c173e	0.13680741
145	0x3dfcbc6e	0.123406276
146	0x3dff0acc	0.12453231
147	0x3e033f6d	0.12817164
148	0x3e085d34	0.13316804
149	0x3e1236c9	0.14278711
150	0x411f816d	9.969098
151	0x4120e2c4	10.055363
152	0x411e6ccc	9.901562
153	0x411c0b9b	9.752833
154	0x411b306f	9.699325
155	0x411e85ab	9.907634
156	0x411f4470	9.954208
157	0x411c5b81	9.77234
158	0x411a418d	9.641004
159	0x4119f64a	9.622629
160	0x411d6d88	9.839241
161	0x411cb46e	9.79405
162	0x411a8306	9.656988
163	0x411856c7	9.521186
164	0x4118338b	9.512584
165	0x411c6103	9.7736845
166	0x411b5f93	9.710834
167	0x411956f3	9.583728
168	0x41170055	9.437581
169	0x41174eac	9.456707
170	0x411c2b17	9.76052
171	0x411b7f1b	9.718532
172	0x4118cb0b	9.549571
173	0x4116395a	9.389002
174	0x4116efd5	9.433553
175	0x409930b8	4.787197
176	0x409af74b	4.842687
177	0x4099306e	4.787162
178	0x40976adb	4.731794
179	0x40974032	4.7265863
180	0x40984afc	4.7591534
181	0x409981d4	4.797098
182	0x409783ac	4.734823
183	0x409615e4	4.690172
184	0x40963879	4.6943936
185	0x40973697	4.725414
186	0x4096dc84	4.7144184
187	0x4095a73d	4.676665
188	0x409429d3	4.6301055
189	0x4094cae4	4.649767
190	0x40961ed5	4.6912637
191	0x40956d6f	4.6696086
192	0x4093ed8c	4.6227474
193	0x40931040	4.5957336
194	0x40946cf4	4.6383
195	0x4095cecc	4.6814938
196	0x40957adf	4.671249
197	0x4093a3af	4.613731
198	0x40926555	4.5748696
199	0x4093e6d4	4.6219273
200	0x4062a437	3.5412729
201	0x40656b93	3.5846908
202	0x40659de8	3.5877628
203	0x4064fdcc	3.5779905
204	0x40661834	3.5952272
205	0x4062a790	3.5414772
206	0x4064aced	3.5730546
207	0x406486e5	3.5707333
208	0x406462c1	3.5685275
209	0x4065fd39	3.5935805
210	0x406237c4	3.5346537
211	0x40627214	3.5382128
212	0x40630160	3.546959
213	0x4062cd1e	3.5437694
214	0x40654cc1	3.5828097
215	0x4060f7e0	3.515129
216	0x4060fc57	3.5154016
217	0x4060f139	3.514723
218	0x40622a7c	3.533843
219	0x40658f7f	3.5868833
220	0x40609cf9	3.5095809
221	0x406156c1	3.52092
222	0x40610fb0	3.5165825
223	0x40621e4a	3.5330987
224	0x40653c2f	3.5817983
225	0x3e89b2b4	0.26894152
226	0x3e89ea6c	0.26936662
227	0x3e89664b	0.26835856
228	0x3e888451	0.2666345
229	0x3e86bb91	0.26314977
230	0x3e8b8910	0.27253008
231	0x3e8bbec8	0.27293992
232	0x3e8acb2e	0.2710814
233	0x3e896288	0.26832986
234	0x3e87c5bc	0.26518047
235	0x3e8c41cc	0.2739395
236	0x3e8caeed	0.27477208
237	0x3e8cab8b	0.27474627
238	0x3e8b3242	0.2718678
239	0x3e891cbc	0.26779735
240	0x3e8adf9c	0.27123725
241	0x3e8bb802	0.27288824
242	0x3e8c4dde	0.27403158
243	0x3e8b657b	0.2722586
244	0x3e890bf7	0.2676694
245	0x3e8931ff	0.26795956
246	0x3e89dd10	0.2692647
247	0x3e8a006a	0.2695344
248	0x3e88ef1b	0.26744923
249	0x3e871414	0.26382506
250	0x3e8a67d6	0.27032346
251	0x3e8a9689	0.27067974
252	0x3e8a024a	0.2695487
253	0x3e890cac	0.2676748
254	0x3e8715b8	0.26383758
255	0x3e8bfe2d	0.27342358

exp_avg f4 [8, 3, 5, 5]
0	0xbe98708c	-0.29773366
1	0xbeafedb3	-0.34361038
2	0xbed25588	-0.4108088
3	0xbebd1641	-0.3693104
4	0xbecf7f84	-0.40526974
5	0xbea6b8f5	-0.32562986
6	0xbec1e985	-0.37873474
7	0xbed4a199	-0.4152954
8	0xbec8a958	-0.391917
9	0xbecaedcd	-0.39634553
10	0xbeaa6518	-0.33280253
11	0xbeb6dac7	-0.3571379
12	0xbec0ac35	-0.37631384
13	0xbed3b855	-0.41351572
14	0xbeddcdb8	-0.43321013
15	0xbea6b303	-0.3255845
16	0xbeafe2af	-0.34352633
17	0xbec42a4a	-0.38313514
18	0xbed525a9	-0.41630295
19	0xbeeac591	-0.45853856
20	0xbeb34d3b	-0.3501986
21	0xbeba1aaa	-0.36348468
22	0xbeba3bef	-0.3637385
23	0xbecb1edd	-0.39671984
24	0xbee46aa2	-0.44612604
25	0xbebfc4a9	-0.37454727
26	0xbeca768c	-0.3954357
27	0xbee8975d	-0.4542798
28	0xbed6a2fd	-0.41921225
29	0xbedf0985	-0.4356195
30	0xbebf10a9	-0.37317398
31	0xbededae9	-0.4352639
32	0xbeeae75f	-0.45879647
33	0xbee3c4f8	-0.44486213
34	0xbee6c9c3	-0.45075807
35	0xbec8efa9	-0.39245346
36	0xbebfa90c	-0.3743366
37	0xbee2e3f6	-0.44314545
38	0xbee7eb68	-0.45296788
39	0xbeedceb7	-0.46446773
40	0xbed440ee	-0.41455787
41	0xbed034f0	-0.40665388
42	0xbed830c7	-0.42224714
43	0xbef520b3	-0.4787651
44	0xbefbe03e	-0.4919452
45	0xbed479b5	-0.41499105
46	0xbed61483	-0.41812524
47	0xbecad5d1	-0.39616254
48	0xbed48b65	-0.415126
49	0xbef3d674	-0.47624552
50	0xbec6fa98	-0.38863063
51	0xbedc7816	-0.43060368
52	0xbeff6046	-0.49878138
53	0xbeeb91b2	-0.46009594
54	0xbef33bbc	-0.4750651
55	0xbecaa12b	-0.39576086
56	0xbee1f2c0	-0.44130516
57	0xbef0132a	-0.4688962
58	0xbee7dd56	-0.45286053
59	0xbef6517d	-0.48109046
60	0xbed24e94	-0.41075575
61	0xbecfb5f8	-0.4056852
62	0xbee5b33c	-0.44863307
63	0xbef1c68d	-0.47221795
64	0xbef3153f	-0.47477147
65	0xbed3681d	-0.4129037
66	0xbec820a0	-0.3908739
67	0xbed92894	-0.4241377
68	0xbefea12c	-0.4973234
69	0xbefa64d5	-0.48905054
70	0xbed282c2	-0.41115385
71	0xbedc41c4	-0.43018925
72	0xbed0c010	-0.40771532
73	0xbedb7a8c	-0.42866933
74	0xbeef150c	-0.46695745
75	0x3cdc5162	0.026894275
76	0x3ca56f75	0.020194748
77	0x3c0f90b5	0.008762528
78	0x399c527e	0.000298161
79	0x3bbc3348	0.005743418
80	0x3c842985	0.01613308
81	0x3c78f618	0.015195392
82	0x3bd53a9d	0.0065072314
83	0xbb5f1f60	-0.00340458
84	0xbc24aebc	-0.010051426
85	0x3c8476eb	0.016169986
86	0x3c393967	0.01130519
87	0x3bfad4c5	0.0076547586
88	0xbc4072cf	-0.0117461225
89	0xbc110680	-0.008851647
90	0x3c430714	0.011903543
91	0x3c29f997	0.010374448
92	0x3a2434b1	0.0006263955
93	0xbb6e5b34	-0.003637028
94	0xbc1e07a4	-0.009645376
95	0x3b9425b3	0.0045210957
96	0x3b26d31c	0.002545542
97	0xbbfe8015	-0.0077667334
98	0xbc80f229	-0.015740471
99	0xbc7b4a90	-0.015337601
100	0x3d064758	0.032782882
101	0x3d3f2d2f	0.04667395
102	0x3d04f172	0.032456823
103	0x3c953f1c	0.01821857
104	0x3c7fa7f2	0.015604006
105	0x3d13b331	0.036059562
106	0x3d0deeea	0.034651674
107	0x3d044cfb	0.032299977
108	0x3c8fb24e	0.017541077
109	0x3c70462c	0.014665168
110	0x3d21f0ad	0.039536167
111	0x3cd428d8	0.025898382
112	0x3c917a28	0.017758444
113	0x3c581072	0.013187515
114	0x3c6a9501	0.014317752
115	0x3d00234f	0.031283673
116	0x3cd6879a	0.026187707
117	0x3cd863cc	0.026414774
118	0x3c619a2c	0.013769668
119	0x3c32aa01	0.01090479
120	0x3d07d372	0.033160634
121	0x3cbbd404	0.022928245
122	0x3ca41751	0.02003065
123	0x3c5a2fec	0.0133170895
124	0x3c743e01	0.014907361
125	0x3daf6468	0.08564073
126	0x3da9769a	0.082745746
127	0x3d9e5717	0.07731455
128	0x3d8db8b1	0.06919993
129	0x3d8b0c36	0.067894384
130	0x3d9ec483	0.077523254
131	0x3d98e61c	0.07465765
132	0x3d93883c	0.07203719
133	0x3d8bfb09	0.068349905
134	0x3d9ac304	0.075567275
135	0x3d9d86f9	0.076917596
136	0x3d930432	0.071785346
137	0x3d748d26	0.059704922
138	0x3d63660b	0.055517238
139	0x3d96b816	0.0735933
140	0x3d82b941	0.06382991
141	0x3d8a172b	0.067427
142	0x3d7e26a3	0.062048566
143	0x3d813852	0.0630957
144	0x3d691f77	0.056914773
145	0x3d948f29	0.07253868
146	0x3d862df9	0.06551737
147	0x3d83f0a4	0.06442383
148	0x3d7f144b	0.062275212
149	0x3d6244bd	0.055241335
150	0xba999aed	-0.0011719145
151	0xbb1b23b3	-0.0023672401
152	0xbccf2021	-0.025283875
153	0xbd90c2b8	-0.0706839
154	0xbe0ea3ad	-0.13929625
155	0xbd543413	-0.051807474
156	0xbc66a7a3	-0.014078054
157	0xbc9d246b	-0.019182405
158	0xbd2663e2	-0.0406226
159	0xbe275c9b	-0.1634392
160	0xbd214fc6	-0.03938272
161	0xbc877000	-0.016532898
162	0xbd5cc52f	-0.053898986
163	0xbd9f251c	-0.0777075
164	0xbe2a124a	-0.16608539
165	0xbda7e260	-0.081974745
166	0xbd0b3067	-0.033981707
167	0xbc073120	-0.008251458
168	0xbd9c9db7	-0.07647269
169	0xbe2571eb	-0.16156738
170	0xbe24c72c	-0.16091603
171	0xbd8443f4	-0.064582735
172	0xbca657ee	-0.0203056
173	0xbdef9f5d	-0.11700318
174	0xbe519992	-0.20468739
175	0xbe0e0040	-0.13867283
176	0xbdd83758	-0.10557431
177	0xbdea7c21	-0.11449457
178	0xbe1d7148	-0.15375245
179	0xbe52d1de	-0.2058787
180	0xbe46b047	-0.19403182
181	0xbe226f8e	-0.15862867
182	0xbe08b1a4	-0.13349015
183	0xbe20e0da	-0.15710774
184	0xbe52f241	-0.20600225
185	0xbe3b5a7a	-0.18296233
186	0xbe260ada	-0.16215077
187	0xbe2a8364	-0.16651684
188	0xbe1f3ef7	-0.15551363
189	0xbe6fe277	-0.23426233
190	0xbe4ea58f	-0.20180343
191	0xbe2f7c84	-0.17137343
192	0xbe067f4e	-0.131345
193	0xbe35f11b	-0.17767756
194	0xbe722bf4	-0.2364958
195	0xbe8a53a2	-0.27016932
196	0xbe32de8e	-0.1746771
197	0xbe048335	-0.12940677
198	0xbe3f7884	-0.18698317
199	0xbe91e5b4	-0.28495562
200	0xbb9f6110	-0.0048638657
201	0xbc494b1b	-0.012285973
202	0xbd4eec8f	-0.05051857
203	0xbce006bd	-0.027346963
204	0xbd90714e	-0.07052861
205	0xbd95cf3c	-0.073149174
206	0xbd3615e2	-0.044454463
207	0xbd45e183	-0.048310768
208	0xbd221d58	-0.039578766
209	0xbda4f572	-0.080546275
210	0xbd01872d	-0.031623054
211	0xbd0de032	-0.034637637
212	0xbc360ab3	-0.011110949
213	0xbcb8359a	-0.022486497
214	0xbd860f12	-0.06545843
215	0xbd6f9f34	-0.058501437
216	0xbd285bc4	-0.04110314
217	0x3b195bfe	0.002340078
218	0xbd27c2a7	-0.04095712
219	0xbe04a80f	-0.12954734
220	0xbdf986bf	-0.12183904
221	0xbda78f9f	-0.081816904
222	0xbd4545c0	-0.048162222
223	0xbd8ac48a	-0.06775768
224	0xbe2125b6	-0.15737042
225	0x3e385a4b	0.18003194
226	0x3e31598d	0.17319317
227	0x3e35d919	0.17758597
228	0x3e38a242	0.18030646
229	0x3e33d4d5	0.17561658
230	0x3e465c88	0.19371235
231	0x3e3fdc0e	0.18736288
232	0x3e3f27fc	0.18667597
233	0x3e34160d	0.17586537
234	0x3e37d4b8	0.1795224
235	0x3e438e06	0.19097146
236	0x3e40f151	0.18842055
237	0x3e469da7	0.19396077
238	0x3e39889a	0.18118516
239	0x3e33ea0e	0.17569754
240	0x3e3ad127	0.18243848
241	0x3e40c62a	0.18825594
242	0x3e44b3ea	0.19209257
243	0x3e43ba8c	0.1911413
244	0x3e3e986f	0.18612836
245	0x3e3b9512	0.18318585
246	0x3e3a662a	0.18203035
247	0x3e3c335d	0.18378969
248	0x3e3c7378	0.18403423
249	0x3e3b2733	0.18276672
250	0x3e44732b	0.19184558
251	0x3e3f6f8f	0.186949
252	0x3e3ed529	0.18636002
253	0x3e405341	0.18781759
254	0x3e32e8e4	0.17471653
255	0x3e4a4c01	0.19755556

exp_avg_sq f4 [30]
0	0x3fd05da1	1.6278573
1	0x421b69a5	38.85317
2	0x41fb52d3	31.415442
3	0x41236ffb	10.214839
4	0x40013d57	2.019369
5	0x3ef22765	0.4729568
6	0x3dc27db9	0.09496636
7	0x3cceb9d9	0.025235103
8	0x3b760edf	0.0037545485
9	0x3cd826f6	0.026385766
10	0x410ab368	8.6688
11	0x43037cb2	131.48709
12	0x42afa7ee	87.82799
13	0x419d276e	19.644253
14	0x406d863b	3.7113178
15	0x3f306e1a	0.68918
16	0x3e2894ef	0.16463064
17	0x3d6eb3d6	0.058276974
18	0x3cc2e25c	0.023789577
19	0x3e64455c	0.22292084
20	0x41609867	14.037208
21	0x42f42739	122.07661
22	0x42325d3e	44.591057
23	0x41488e6e	12.534773
24	0x4042d500	3.0442505
25	0x3f49f111	0.78883463
26	0x3e537625	0.20650537
27	0x3d372538	0.04471323
28	0x3c109ab9	0.008825951
29	0x3dd57f6a	0.10424693

exp_avg f4 [30]
0	0x3edb9dca	0.4289382
1	0xbe5cd1b7	-0.21564375
2	0x3f9dcf21	1.2328836
3	0x3e9d07e1	0.30670074
4	0xbd9db32a	-0.077001885
5	0xbd92b79f	-0.07163929
6	0xbce3e860	-0.027820766
7	0xbc9d30ed	-0.019188369
8	0xbbdbe8f9	-0.006711122
9	0x3bd9dd08	0.0066486634
10	0xbf98aef8	-1.1928396
11	0x3fe16ac9	1.7610713
12	0x3dcc9a5f	0.099903814
13	0xbe156e5f	-0.14592884
14	0x3e5b189f	0.21396111
15	0xbea371ce	-0.31922764
16	0xbe11e038	-0.14245689
17	0xbc4975c7	-0.012296147
18	0xbc74378a	-0.01490582
19	0xbc1fd1dc	-0.009754624
20	0x3e0716f4	0.1319235
21	0xbf887372	-1.0660231
22	0xbe7e02c2	-0.2480574
23	0x3e4642a6	0.19361362
24	0xbe8bb431	-0.27285913
25	0x3dbc5bf9	0.0919723
26	0x3d943ed2	0.072385445
27	0x3c5497e2	0.012975665
28	0x3cf7b097	0.030235572
29	0xbae79ce7	-0.0017670662

exp_avg_sq f4 [16]
0	0x3df1e0af	0.11810433
1	0x3e8d901a	0.27649003
2	0x3e84176c	0.2579912
3	0x3c4e2e06	0.012584215
4	0x3c994c7b	0.018713227
5	0x3e1d6eef	0.15374349
6	0x3dec3405	0.115333594
7	0x3df0b3c9	0.11753041
8	0x3e9a0be8	0.3008721
9	0x3e42d843	0.1902781
10	0x3e0d7a49	0.1381618
11	0x3ea423d1	0.32058576
12	0x3e01f97a	0.12692824
13	0x3df80ac9	0.12111432
14	0x3ece2950	0.40265894
15	0x3ca47df0	0.020079583

exp_avg f4 [16]
0	0xbd5ea73a	-0.0543587
1	0xbc8e3cc1	-0.017362954
2	0x3e5a184b	0.2129833
3	0x3cca6c72	0.024709914
4	0x3d4d8a55	0.05018075
5	0x3cd6c498	0.02621679
6	0x3d1f62bb	0.038912516
7	0x3dfa0371	0.12207688
8	0x3d7623cc	0.060092732
9	0x3e0ec7fa	0.13943473
10	0x3e92faab	0.2870687
11	0x3e003c22	0.12522939
12	0xbc26994f	-0.010168388
13	0xbd10fdbd	-0.035398234
14	0xbcb9a633	-0.022662258
15	0x3cf4026a	0.029786307

exp_avg_sq f4 [64, 32, 3, 3]
0	0x3ce2fe56	0.027709167
1	0x3ce8eb4d	0.028432513
2	0x3ce93961	0.028469743
3	0x3ceeb40f	0.029138593
4	0x3ce21b3d	0.027600879
5	0x3cfcc94c	0.030857705
6	0x3cd017d1	0.025401982
7	0x3cd3c181	0.025849106
8	0x3cd800e1	0.026367607
9	0x3cb6a9b1	0.022297712
10	0x3cd2c356	0.025727909
11	0x3cd94199	0.026520537
12	0x3ca958ec	0.020672284
13	0x3cab6ed9	0.02092688
14	0x3ccad51b	0.02475982
15	0x3c801f25	0.01563985
16	0x3c9099ef	0.017651526
17	0x3c9c9df9	0.019118296
18	0x3cccc82b	0.024997791
19	0x3cef64a6	0.029222798
20	0x3cdece1c	0.02719789
21	0x3cd0142c	0.025400244
22	0x3d15509e	0.036453836
23	0x3ce9b5aa	0.028529007
24	0x3d1334b9	0.035938952
25	0x3d24c39e	0.040225618
26	0x3cea135a	0.02857368
27	0x3c49ed1e	0.0123246
28	0x3c53c476	0.012925258
29	0x3c513073	0.012767899
30	0x3c5ef1bb	0.013607438
31	0x3c7a7ad8	0.015288077
32	0x3c58998e	0.013220204
33	0x3c1db554	0.0096257515
34	0x3c1ca700	0.0095613
35	0x3c1b34ad	0.009473008
36	0x3cf506fc	0.029910557
37	0x3ceb9c73	0.028761124
38	0x3cf008d2	0.02930108
39	0x3d1d4623	0.038396966
40	0x3cfaca29	0.030613976
41	0x3d0d4946	0.034493707
42	0x3d260a9e	0.04053747
43	0x3cf743c4	0.03018368
44	0x3d15ddc1	0.036588434
45	0x3dada869	0.08479387
46	0x3db5582d	0.08854709
47	0x3dc11833	0.09428444
48	0x3daa4fa6	0.08315973
49	0x3da76386	0.081732795
50	0x3daa3636	0.08311121
51	0x3db9907d	0.09060762
52	0x3dae92c9	0.08524091
53	0x3da7ca7e	0.08192919
54	0x3d2ad471	0.041706506
55	0x3d20e2f6	0.039278947
56	0x3d2947ac	0.041328117
57	0x3d23c73d	0.03998493
58	0x3d1bfee4	0.03808488
59	0x3d1ee7ce	0.038795285
60	0x3d17ca99	0.037058447
61	0x3d0fce59	0.035108898
62	0x3d129f18	0.035796255
63	0x3ca8001c	0.020507865
64	0x3c8a997b	0.016918888
65	0x3caf5fad	0.021407926
66	0x3c53b3fc	0.01292133
67	0x3c69a7ac	0.0142611675
68	0x3c82dcf2	0.015974496
69	0x3c3209d6	0.010866603
70	0x3c4f5600	0.012654781
71	0x3c7b6280	0.015343308
72	0x3d273f98	0.040832132
73	0x3d206958	0.039162964
74	0x3d2df9dc	0.042474613
75	0x3d055024	0.03254713
76	0x3cfaceed	0.030616248
77	0x3d062833	0.03275318
78	0x3cdcc9b5	0.02695165
79	0x3cd7d476	0.026346426
80	0x3cf26bd4	0.029592432
81	0x3d49f1d8	0.049302906
82	0x3d3d1680	0.046164036
83	0x3d3c0f1e	0.045912854
84	0x3d45de64	0.04830779
85	0x3d401ad2	0.046900578
86	0x3d4717ed	0.0486068
87	0x3d26781f	0.0406419
88	0x3d2c4691	0.042059485
89	0x3d290bec	0.041271135
90	0x3cff876f	0.03119251
91	0x3d0450c4	0.032303587
92	0x3d07c7b5	0.03314944
93	0x3cf17c05	0.029478082
94	0x3ce199bd	0.027539128
95	0x3cedf011	0.029045137
96	0x3ce2ea51	0.027699621
97	0x3cdf2c8e	0.027242925
98	0x3ce8be07	0.028410925
99	0x3d5d211c	0.053986654
100	0x3d7c8552	0.06165058
101	0x3d67a7c9	0.056556497
102	0x3d555d9b	0.052091222
103	0x3d5e8376	0.05432459
104	0x3d61a63e	0.05509018
105	0x3d4974ab	0.04918353
106	0x3d506bc5	0.050884027
107	0x3d4aa700	0.04947567
108	0x3d10db11	0.035365168
109	0x3d0cd5f3	0.034383725
110	0x3d1b39ac	0.037896797
111	0x3d04658b	0.0323234
112	0x3d02bb44	0.03191687
113	0x3d0989a7	0.03357854
114	0x3ce84b1c	0.028356127
115	0x3cd69b01	0.026196958
116	0x3ce75600	0.02823925
117	0x3d013cdc	0.03155218
118	0x3cf2d895	0.02964429
119	0x3d006840	0.03134942
120	0x3d0ea0da	0.03482137
121	0x3d093dad	0.033506084
122	0x3cf386f4	0.029727437
123	0x3d11e416	0.03561791
124	0x3d11d323	0.035601746
125	0x3d0ed143	0.034867536
126	0x3d5ace94	0.053419665
127	0x3d427cbc	0.047482237
128	0x3d4fd1e5	0.05073728
129	0x3d3b4a65	0.045725245
130	0x3d35ff3a	0.044432856
131	0x3d37a929	0.044839058
132	0x3d273f1e	0.040831678
133	0x3d1b013f	0.037842985
134	0x3d258275	0.040407617
135	0x3cee5ee5	0.029097984
136	0x3cf4f52c	0.029902063
137	0x3d0a1806	0.033714317
138	0x3cdd3897	0.027004523
139	0x3cdaeb11	0.026723417
140	0x3ccca2ff	0.024980066
141	0x3cd202f8	0.025636181
142	0x3cd4b3d0	0.025964648
143	0x3ccf7047	0.025322093
144	0x3d61a64a	0.055090226
145	0x3d472686	0.048620723
146	0x3d3b48a0	0.045723557
147	0x3d51c144	0.051209703
148	0x3d39d0b9	0.04536507
149	0x3d3bc1f9	0.045839284
150	0x3d35c4f3	0.04437728
151	0x3d2dfd89	0.042478118
152	0x3d3982ba	0.045290686
153	0x3d5d2f16	0.053999983
154	0x3d624a78	0.0552468
155	0x3d49dc21	0.049282197
156	0x3d4c1f44	0.049834505
157	0x3d490abc	0.049082503
158	0x3d4bf582	0.04979468
159	0x3d410f42	0.04713369
160	0x3d3085f9	0.043096516
161	0x3d302b0d	0.043009806
162	0x3cae7ce6	0.02129979
163	0x3ca4a8ef	0.020100085
164	0x3cf73837	0.030178173
165	0x3c8f3877	0.01748298
166	0x3cc78b57	0.024358435
167	0x3cad76d6	0.02117483
168	0x3c94d3cc	0.018167399
169	0x3c8cf4bb	0.01720654
170	0x3c8867a4	0.016650982
171	0x3c88630d	0.016648794
172	0x3c84d1d2	0.016213331
173	0x3c516719	0.012780928
174	0x3cabd85d	0.020977193
175	0x3c8dcd71	0.017309876
176	0x3c8f392f	0.017483322
177	0x3c9152ab	0.017739614
178	0x3c77ea20	0.015131503
179	0x3caf16c1	0.021373155
180	0x3c984685	0.018588314
181	0x3c8a1005	0.016853342
182	0x3c8960e4	0.016769834
183	0x3c97a04c	0.018509053
184	0x3c89476b	0.016757688
185	0x3c73ff7b	0.014892454
186	0x3cb92928	0.022602633
187	0x3c925d63	0.017866796
188	0x3c813c18	0.015775725
189	0x3db3c38d	0.08777533
190	0x3dadea83	0.08491995
191	0x3db72f39	0.08944554
192	0x3dacf449	0.08445031
193	0x3dab745f	0.083718054
194	0x3daddc1c	0.08489248
195	0x3dad2c2c	0.08455691
196	0x3dae0875	0.08497707
197	0x3da81555	0.08207194
198	0x3cdae90a	0.02672245
199	0x3ce83118	0.028343722
200	0x3ceea339	0.029130565
201	0x3cc39844	0.023876317
202	0x3cd89c80	0.026441813
203	0x3cdeb37e	0.027185198
204	0x3ca2c180	0.019867659
205	0x3c9dce8b	0.019263526
206	0x3ca843c4	0.020540126
207	0x3ced0239	0.028931724
208	0x3ce2c1bb	0.027680269
209	0x3ccf09ac	0.025273167
210	0x3cec16fb	0.028819552
211	0x3ce3d7ef	0.027812926
212	0x3ceefdfd	0.029173845
213	0x3cf62b3d	0.030049914
214	0x3cfac259	0.03061025
215	0x3cfa230e	0.030534294
216	0x3cdc250c	0.026873134
217	0x3cdab634	0.02669821
218	0x3cb23cc0	0.021757483
219	0x3cc27dd6	0.023741644
220	0x3cbce767	0.02305956
221	0x3cc915b6	0.024546485
222	0x3ced03e1	0.028932514
223	0x3cd317c5	0.02576817
224	0x3cc1f902	0.023678306
225	0x3d0571b7	0.03257915
226	0x3cf5640d	0.029954934
227	0x3d009127	0.031388428
228	0x3cd42021	0.025894227
229	0x3d032aa6	0.032023095
230	0x3cf90644	0.030398495
231	0x3cc28294	0.023743905
232	0x3cd52370	0.026017874
233	0x3ce65780	0.028117895
234	0x3ccbc5f6	0.024874669
235	0x3cd49c3e	0.025953408
236	0x3cba6357	0.022752447
237	0x3ccb16fb	0.024791231
238	0x3cd89afa	0.026441086
239	0x3cca1a20	0.02467066
240	0x3cb6e9fb	0.022328367
241	0x3cb64b6a	0.022252757
242	0x3cd282e9	0.025697188
243	0x3d0ead24	0.03483309
244	0x3d150452	0.036381073
245	0x3d013663	0.031546008
246	0x3d08eb12	0.033427306
247	0x3d08000c	0.03320317
248	0x3cf172ce	0.029473688
249	0x3d0de4a6	0.034641884
250	0x3d0380a7	0.032105114
251	0x3cffa591	0.031206878
252	0x3cc765bd	0.024340505
253	0x3cbb3dc0	0.022856593
254	0x3cb2741e	0.021783885
255	0x3cc2cbc5	0.023778806

exp_avg f4 [64, 32, 3, 3]
0	0xbc07da12	-0.008291738
1	0xbd2712f3	-0.040789556
2	0xbcfb3257	-0.030663652
3	0xbc3ef323	-0.011654648
4	0x3c0b628b	0.008507381
5	0xbc86fbb4	-0.016477443
6	0xbcbfaca1	-0.023397746
7	0xbd45865b	-0.048223834
8	0xbcc00bd5	-0.023443142
9	0xbbb7ae94	-0.005605528
10	0x3c79c4dd	0.01524469
11	0xbb237a02	-0.0024944548
12	0x3cb05968	0.021527007
13	0x3c4b5652	0.012410717
14	0x3c615c59	0.013754928
15	0x3c959b2d	0.01826247
16	0x3d1cd631	0.038290206
17	0x3caad52c	0.020853601
18	0xbd58f1aa	-0.052964844
19	0xbd8e74e8	-0.06955892
20	0xbceafa3f	-0.02868378
21	0xbd50b652	-0.050955124
22	0xbd75b9d1	-0.05999166
23	0xbc98b1c7	-0.018639458
24	0xbd82f84e	-0.063950166
25	0xbd99c8e1	-0.07509018
26	0xbd27a7cd	-0.04093151
27	0xbcfaa5c5	-0.030596623
28	0xbd49ca28	-0.049265057
29	0xbc24f573	-0.010068285
30	0xbca1f4e0	-0.019770086
31	0xb67ddc31	-3.7828106e-06
32	0xbbe1be88	-0.006889168
33	0xbbe31e8c	-0.0069311317
34	0xbcf3c5aa	-0.02975734
35	0xbc6be076	-0.014396777
36	0xbdbe1e82	-0.09283163
37	0xbd89451f	-0.06702637
38	0xbd977289	-0.07394893
39	0xbe00f1c7	-0.1259223
40	0xbdd37619	-0.1032526
41	0xbdbdb23e	-0.092625126
42	0xbdf6af83	-0.12045195
43	0xbdbf699f	-0.093463175
44	0xbdd97951	-0.106188424
45	0x39945065	0.00028288658
46	0x3d18b52c	0.037282154
47	0x3871702c	5.7563346e-05
48	0x3bc6d7e6	0.0060682176
49	0x3c6534c9	0.013989636
50	0x3c7b4daa	0.015338341
51	0x3cd63234	0.026146986
52	0x3d2e8ec2	0.042616613
53	0x3c4c2abf	0.012461363
54	0x3d95cf79	0.07314963
55	0x3d74b2b5	0.05974074
56	0x3d543a9b	0.051813703
57	0x3d941ce3	0.07232072
58	0x3d245004	0.04011537
59	0x3da57ba4	0.08080223
60	0x3dacee04	0.084438354
61	0x3d8314b8	0.06400436
62	0x3dafc46a	0.08582385
63	0xbbb7b913	-0.0056067794
64	0xbc171fbf	-0.009223877
65	0xbc4a24cd	-0.012337876
66	0x3c883775	0.016628006
67	0x3cbcb824	0.023037024
68	0xbbb360e2	-0.005474196
69	0xbc0426cd	-0.008065891
70	0x3bad9481	0.005297244
71	0xbb801065	-0.0039082044
72	0x3d37536b	0.044757288
73	0x3d2c59b1	0.042077724
74	0x3cbd226c	0.023087703
75	0x3d287cae	0.04113453
76	0x3d5084ae	0.050907783
77	0x3c789876	0.015173068
78	0x3d5beaff	0.053690907
79	0x3d429a89	0.047510657
80	0x3d0f43e4	0.034976855
81	0xbc33c6ec	-0.01097272
82	0xbc90730d	-0.017632985
83	0xbc855053	-0.016273653
84	0xbbd81f63	-0.0065955385
85	0xbcb050af	-0.021522848
86	0xbc5ba7bf	-0.013406693
87	0xbbba439f	-0.0056843306
88	0xbbdf4dfa	-0.0068147155
89	0xbbf9dbe0	-0.007625088
90	0xbc45840b	-0.012055407
91	0x3c783470	0.015149221
92	0xbcaea67a	-0.021319617
93	0x3afa0d4a	0.0019077447
94	0x3adcdab4	0.0016849847
95	0xbc0dc7eb	-0.008653621
96	0x3c244c4e	0.010027958
97	0x3a5a8bb2	0.0008336856
98	0xbc5e0575	-0.013551106
99	0xbc5ebf50	-0.013595417
100	0xbc161b15	-0.00916173
101	0xbc983c4d	-0.018583441
102	0x3b6a621e	0.0035764049
103	0xbbc6c90b	-0.0060664467
104	0x3cde129e	0.027108487
105	0xbc6c482f	-0.014421507
106	0xbc7b669d	-0.015344289
107	0x3b97c395	0.0046314695
108	0x3d52c548	0.051457673
109	0x3d2f9889	0.04287008
110	0x3cb1bea9	0.02169736
111	0x3d3da06a	0.04629556
112	0x3d5dfdf6	0.054197274
113	0x3d25cd92	0.04047925
114	0x3d80d060	0.062897444
115	0x3d6b1ae4	0.05739869
116	0x3d816762	0.06318547
117	0xbd28d93e	-0.041222803
118	0xbd014087	-0.03155568
119	0xbd6c1372	-0.057635732
120	0xbd35834e	-0.044314675
121	0xbd7f405a	-0.06231723
122	0xbd55fd9c	-0.052243814
123	0xbd78a011	-0.060699526
124	0xbd3db326	-0.046313427
125	0xbd85c6f6	-0.065320894
126	0x3bc0b248	0.005880628
127	0x3bd053e1	0.0063576554
128	0x3bfd96e7	0.007738936
129	0x3cb6670a	0.02226593
130	0x3d252d33	0.04032631
131	0x3cbb29bb	0.022847047
132	0x3c728ed2	0.014804559
133	0x3c51f5ed	0.012814981
134	0x3c4a7aca	0.012358377
135	0xbbdd867b	-0.006760416
136	0x3d0ddec8	0.03463629
137	0x3b15028f	0.002273712
138	0x3c7d524c	0.015461516
139	0x3c5c2382	0.0134362
140	0x3c7c2dfc	0.015391823
141	0x3c29f86c	0.01037417
142	0x3d421812	0.047386236
143	0x3ca91949	0.02064194
144	0xbba43eee	-0.0050123846
145	0xbd3a586b	-0.04549448
146	0xbc976dbb	-0.01848494
147	0xbc8c88c9	-0.017155068
148	0xbc7ad75d	-0.015310136
149	0xbd0436c5	-0.032278795
150	0xbbf10f6d	-0.007356575
151	0xbbd91e74	-0.0066259447
152	0xbbb5d644	-0.005549224
153	0xbc259690	-0.010106698
154	0xbae2ba75	-0.0017298
155	0xbc5cd7d1	-0.013479189
156	0xbc3dead5	-0.011591633
157	0xbc83d76d	-0.016093934
158	0x3b750954	0.0037389593
159	0x3cbd9165	0.023140619
160	0xbb4c9857	-0.0031218731
161	0xbbf767dc	-0.007550223
162	0xbc83b03e	-0.01607525
163	0xbbbd53db	-0.0057778186
164	0xbbfc6c59	-0.0077033457
165	0xbc1c7e48	-0.009551592
166	0x3c41930b	0.011814843
167	0xbca71978	-0.020397887
168	0x3b936aba	0.004498807
169	0x3ba04395	0.004890869
170	0x3be540eb	0.006996264
171	0xbd6887a6	-0.05676999
172	0xbd1f5733	-0.03890152
173	0xbd6bdca8	-0.05758348
174	0xbd39667a	-0.045263745
175	0xbd510169	-0.051026735
176	0xbd5b010a	-0.053467788
177	0xbd63e694	-0.05563982
178	0xbd9514c9	-0.07279355
179	0xbd44b30a	-0.048022307
180	0xbd0472c6	-0.03233602
181	0xbc3d43e9	-0.011551836
182	0xbc8a571a	-0.016887236
183	0xbd81db8c	-0.06340703
184	0xbd144fe5	-0.036209006
185	0xbd18b669	-0.037283335
186	0xbcea0e82	-0.028571371
187	0xbc9713b3	-0.01844201
188	0xbd23e0a7	-0.040009167
189	0xbbf1f918	-0.0073844306
190	0x3c8ba5a6	0.01704676
191	0x3aeca780	0.001805529
192	0xbb3a0751	-0.0028385709
193	0xbb991e07	-0.004672769
194	0x3c34c9c4	0.011034433
195	0x3969243e	0.00022234113
196	0xbbf8b055	-0.00758938
197	0xbb4adfda	-0.003095618
198	0x3c9d3c9d	0.019193942
199	0x3c67512f	0.014118477
200	0xbac2f01f	-0.0014872587
201	0x3c918280	0.017762423
202	0xbc9d0505	-0.019167433
203	0x3ca33d1c	0.0199266
204	0x3d20e6b3	0.039282512
205	0x3d1d00cb	0.038330834
206	0x3c921287	0.0178311
207	0xbcd28cfa	-0.025701988
208	0xbc792989	-0.015207657
209	0xbc1bb36a	-0.009503225
210	0xbd071425	-0.032978196
211	0xbc8dceae	-0.017310467
212	0xbc87ca5f	-0.01657599
213	0xbd164372	-0.036685415
214	0xbca948ec	-0.020664655
215	0xbc83950c	-0.016062282
216	0xbd05c369	-0.03265706
217	0xbcfce87f	-0.030872582
218	0xbd027f19	-0.03185949
219	0xbd0deba7	-0.034648564
220	0xbc6898c0	-0.014196575
221	0xbd49e8c9	-0.049294267
222	0xbd4786a5	-0.04871239
223	0xbd4c0b22	-0.049815305
224	0xbd4fbf50	-0.05071956
225	0xbcd0854a	-0.025454182
226	0xbbdc4285	-0.006721797
227	0xbc80044d	-0.01562705
228	0xbcb3fba1	-0.021970572
229	0xbc10a6d8	-0.008828841
230	0xbd159d2e	-0.03652685
231	0xbcc3daaa	-0.023907978
232	0xbcbb6b23	-0.022878235
233	0xbc18d039	-0.009326988
234	0xbcb63e13	-0.022246396
235	0xbcccadc1	-0.024985196
236	0xbcfbacbc	-0.030722015
237	0xbd0e4ad5	-0.034739334
238	0xbcdc61c3	-0.026902085
239	0xbcb59280	-0.022164583
240	0xbcb8f551	-0.022577913
241	0xbd0c4049	-0.034240995
242	0xbabe02a4	-0.0014496637
243	0xbb62ca47	-0.003460543
244	0x3b485901	0.0030570629
245	0xbca988c1	-0.020695092
246	0xbc553fe9	-0.013015726
247	0xbc86eee3	-0.016471332
248	0xbae39b1a	-0.001736495
249	0xbbb55ce6	-0.005534756
250	0x3b74200b	0.0037250544
251	0xbb83e60b	-0.004025226
252	0xbd79f8ba	-0.06102822
253	0xbd54bba0	-0.051936746
254	0xbd58213e	-0.052766077
255	0xbd9ac95d	-0.07557938

exp_avg_sq f4 [64]
0	0x3cf73306	0.030175697
1	0x3ca47cba	0.020079006
2	0x3ccc659c	0.024950795
3	0x3d21e3bc	0.039523825
4	0x3d770742	0.060309656
5	0x3cf0e349	0.029405253
6	0x3cb0f4d5	0.02160112
7	0x3c90220e	0.017594364
8	0x3c59585d	0.013265696
9	0x3d698ca1	0.05701888
10	0x3d333bea	0.04375831
11	0x3c6c4013	0.014419573
12	0x3cdbbcd7	0.026823444
13	0x3c208e92	0.009799616
14	0x3c2edf31	0.01067333
15	0x3c646049	0.013938972
16	0x3d50cbe9	0.050975714
17	0x3de34761	0.11097599
18	0x3d86cd02	0.06582071
19	0x3d889397	0.066687755
20	0x3d5e4ebe	0.054274313
21	0x3d346fb1	0.04405183
22	0x3dfae021	0.122497804
23	0x3c5c08ee	0.013429863
24	0x3cf1532b	0.029458603
25	0x3d271b8d	0.04079776
26	0x3d47116d	0.048600603
27	0x3bc75f43	0.006084354
28	0x3e28bb50	0.16477704
29	0x3c9fb2a7	0.019494368
30	0x3cb876ea	0.02251764
31	0x3bfd3e27	0.0077283564
32	0x3c844850	0.016147763
33	0x3dc6119c	0.096713275
34	0x3d13af2f	0.03605574
35	0x3d4c7275	0.049913842
36	0x3c81bb1a	0.015836287
37	0x3d290c7d	0.041271675
38	0x3d346f47	0.044051435
39	0x3d93e425	0.072212495
40	0x3d8d7502	0.06907083
41	0x3c60a3ed	0.013710958
42	0x3d1d6f3a	0.038436152
43	0x3d64abf0	0.055828035
44	0x3d2c9252	0.04213173
45	0x3dc97fd8	0.098388374
46	0x3cbb592b	0.022869667
47	0x3cb9104f	0.022590784
48	0x3d9b885b	0.07594367
49	0x3c0c0935	0.008547117
50	0x3d4f2e5c	0.05058132
51	0x3d1cb4b7	0.03825828
52	0x3c22bbb2	0.009932445
53	0x3cceaa6f	0.025227753
54	0x3bb54317	0.0055316794
55	0x3ca55284	0.020180948
56	0x3d0d809e	0.034546487
57	0x3c822fcb	0.01589193
58	0x3cd97753	0.026546156
59	0x3d4f7e28	0.05065742
60	0x3c876d2a	0.016531546
61	0x3cb80c4d	0.022466803
62	0x3da75608	0.08170706
63	0x3d046ba0	0.0323292

exp_avg f4 [64]
0	0x3cef980e	0.02924731
1	0x3922999a	0.00015506745
2	0xbcb7df8e	-0.022445466
3	0xba4025a9	-0.00073298306
4	0xbd49e8e2	-0.04929436
5	0xbd69efc1	-0.057113413
6	0x3d5b4bf4	0.05353923
7	0xbcb9763f	-0.022639392
8	0xbc9e7a36	-0.019345384
9	0xbc9d4905	-0.019199857
10	0x3d076e19	0.03306398
11	0xbcbba9a6	-0.022908043
12	0xbcbfdb41	-0.023419978
13	0x3b8b2ed5	0.004247526
14	0x3cb0fcc5	0.021604905
15	0x3ca7bf80	0.020477057
16	0x3dcc6420	0.09980035
17	0xbd85457f	-0.06507396
18	0x3ca3fd68	0.020018294
19	0x3d27e5cb	0.040990632
20	0x3cf2a73e	0.029620763
21	0xbcef6b31	-0.029225918
22	0xbd02142c	-0.03175752
23	0xbc646d63	-0.013942095
24	0x3d95fdd9	0.07323808
25	0xbd6e2916	-0.05814465
26	0x3c26c904	0.010179762
27	0x3c8f7aeb	0.017514667
28	0x3db99b7f	0.09062862
29	0x3b9aebb2	0.004727804
30	0x3ca68b6d	0.020330155
31	0xbd093c33	-0.033504676
32	0x3aad247f	0.0013209729
33	0xbd979c5f	-0.07402872
34	0x3d3a7be1	0.045528296
35	0x3bc11d8f	0.0058934162
36	0xbd482bef	-0.048870023
37	0xbca881dd	-0.020569736
38	0xbd012e4c	-0.031538293
39	0xbdc698c8	-0.096971095
40	0x3d083a58	0.033258766
41	0x3c4604dd	0.01208612
42	0x3d2b4b08	0.041819602
43	0xbe06fbe2	-0.13182023
44	0x3d9ced8d	0.07662497
45	0x3ddcd415	0.10782639
46	0x3d44a255	0.048006374
47	0x3d2a5d3c	0.04159282
48	0xbbb18b99	-0.0054182527
49	0x3cb3b79b	0.021938136
50	0xbb9e648d	-0.004833764
51	0x3d09d38f	0.033649024
52	0x3d246b40	0.040141344
53	0x3c137e0c	0.00900222
54	0xbbe3afc2	-0.006948442
55	0xbcd53a17	-0.026028676
56	0x3cc8fc40	0.024534345
57	0xbb1c22e9	-0.002382452
58	0x3ca8a2bd	0.020585412
59	0x3beb8e87	0.0071886214
60	0x3d5daf62	0.054122336
61	0xbd3506cd	-0.04419594
62	0x3d5ba4cf	0.05362397
63	0x3a933400	0.0011230707

exp_avg_sq f4 [64]
0	0x3cc7ed85	0.02440525
1	0x3c9097b6	0.017650466
2	0x3d91073d	0.07081459
3	0x3d058306	0.032595657
4	0x3d41f2a4	0.04735054
5	0x3d543060	0.051803946
6	0x3d170eb7	0.036879268
7	0x3c49a45e	0.012307255
8	0x3db78a6c	0.08961949
9	0x3d322eb3	0.043501567
10	0x3cdcc321	0.026948513
11	0x3d3b2b33	0.045695495
12	0x3ceec000	0.029144287
13	0x3c018d46	0.007907217
14	0x3d1d7144	0.038438097
15	0x3cfceaed	0.03087374
16	0x3d0295db	0.031881195
17	0x3d87d12b	0.066316925
18	0x3ccb5e61	0.024825277
19	0x3dad1d13	0.08452811
20	0x3d56e148	0.05246094
21	0x3da54fa6	0.08071832
22	0x3d9a9846	0.07548575
23	0x3d01fa4f	0.031732854
24	0x3d3f470b	0.04669861
25	0x3d41f891	0.047356192
26	0x3d00e144	0.03146483
27	0x3cf217b1	0.029552313
28	0x3d7f5c29	0.06234375
29	0x3d11dd73	0.03561158
30	0x3d60ec02	0.054912575
31	0x3c3638f6	0.011121979
32	0x3d2ce175	0.0422072
33	0x3cf66f46	0.030082356
34	0x3dbafc84	0.09130195
35	0x3cf8abbd	0.030355329
36	0x3cc9a1d2	0.024613295
37	0x3c8b0ae4	0.016972966
38	0x3d691007	0.05690005
39	0x3d6e4a7b	0.0581765
40	0x3d170a72	0.036875196
41	0x3d0fedff	0.03513908
42	0x3dc8d867	0.098069005
43	0x3d37b44d	0.044849683
44	0x3da266e2	0.079297796
45	0x3d3edb11	0.046595637
46	0x3d6d5d61	0.05795038
47	0x3cc929fd	0.024556154
48	0x3e18a0c6	0.1490508
49	0x3c0c8215	0.008575936
50	0x3d0b7a03	0.034051906
51	0x3d9e2471	0.077217944
52	0x3d19977e	0.03749799
53	0x3dd79e87	0.105282836
54	0x3d117f19	0.0355216
55	0x3cff2ba3	0.031148737
56	0x3d63191b	0.055443864
57	0x3c7e988d	0.015539301
58	0x3cc9e95e	0.024647411
59	0x3d3e59ed	0.04647248
60	0x3d3db4ad	0.046314884
61	0x3d942c4b	0.07235011
62	0x3da21b73	0.07915392
63	0x3d2b02fc	0.041750893

exp_avg f4 [64]
0	0x3d7dfcc9	0.062008653
1	0x3d3557b7	0.044273105
2	0x3d936342	0.07196666
3	0x3ddc851f	0.10767578
4	0xbcbabc1b	-0.022794774
5	0x3db54f75	0.08853046
6	0x3d7fdc7d	0.062466133
7	0x3d6faca2	0.058514245
8	0x3da15299	0.078770824
9	0x3d4bb278	0.049730748
10	0x3dba1ee4	0.09087923
11	0x3d9f5096	0.077790424
12	0x3d2b34c6	0.041798376
13	0x3d0fdb63	0.035121333
14	0x3d6f11a8	0.058366448
15	0x3d1ac695	0.03778704
16	0x3c57df8f	0.013175859
17	0x3b4b93bb	0.0031063396
18	0x3c0715c0	0.008244932
19	0xb9a17af3	-0.00030799917
20	0x3d75e9c3	0.060037386
21	0x3d65b1af	0.056077655
22	0x3add4b82	0.0016883465
23	0x3de1544d	0.11002407
24	0x3d3076a2	0.043081887
25	0x3c6023eb	0.0136804385
26	0x3d1fb9f2	0.03899569
27	0x3d76d1ee	0.0602588
28	0xbc8733fd	-0.016504282
29	0x3d9b490f	0.07582294
30	0x3c6e3614	0.01453926
31	0x3d308fd1	0.043105904
32	0x3d8006e0	0.06251311
33	0x3c87729d	0.016534144
34	0x3c7f4b5c	0.015581932
35	0x3d89e18d	0.067324735
36	0x3c8d83ab	0.017274698
37	0xbb2be63b	-0.0026229757
38	0x3bbdc96e	0.0057918346
39	0xbca7721d	-0.020440156
40	0x3ddb2592	0.10700525
41	0xbc7db822	-0.015485795
42	0x3d041640	0.03224778
43	0x3ca56bf8	0.020193085
44	0x3d1a9886	0.037743114
45	0x3e03aefb	0.12859719
46	0x3d8277d4	0.06370512
47	0x3d957c66	0.07299118
48	0x3d678810	0.056526244
49	0x3d517aad	0.051142383
50	0x3c6e5d62	0.014548631
51	0x3d4d74ac	0.050160095
52	0x3dd24d21	0.102686174
53	0xbcd4a17e	-0.025955912
54	0x3d9d14f2	0.076700106
55	0xbcbabb92	-0.022794519
56	0x3d99d540	0.07511377
57	0xbc19c108	-0.009384401
58	0x3d6a336a	0.05717794
59	0x3d00ea4f	0.031473454
60	0x3d911d5d	0.07085679
61	0x3d8bf7d1	0.068343766
62	0x3dc16c18	0.09444445
63	0x3d833178	0.0640592

exp_avg_sq f4 [16]
0	0x3c3a20d0	0.011360362
1	0x3db642f5	0.0889949
2	0x425c156f	55.02093
3	0x40e58d9f	7.1735377
4	0x4050ffd2	3.265614
5	0x3f8f214a	1.1182034
6	0x411ed5b7	9.927176
7	0x428f0fdc	71.530975
8	0x402f7c62	2.7419667
9	0x3dbf87fa	0.09352107
10	0x41a8687a	21.051014
11	0x42a2a337	81.31878
12	0x42610f01	56.264652
13	0x438ab63c	277.4237
14	0x4297a2c6	75.81792
15	0x40030824	2.0473719

exp_avg f4 [16]
0	0x3cd51dfc	0.026015274
1	0xbd5e19e2	-0.054223903
2	0x3ec954d9	0.39322546
3	0x3e6c688d	0.23086758
4	0x3f11067c	0.5665052
5	0xbe1d2456	-0.15345892
6	0x3e97dbc3	0.29659852
7	0xbf518f12	-0.8185893
8	0xbc00cb22	-0.007860931
9	0xbd158dda	-0.036512233
10	0xbcc1cdad	-0.023657644
11	0xbfd85dcc	-1.6903625
12	0xbfef695c	-1.8704028
13	0xc080da67	-4.0266604
14	0x3f1dbd67	0.6161713
15	0x3e772a41	0.24137212

exp_avg_sq f4 [32, 16, 3, 3]
0	0x3e90fd1b	0.28318104
1	0x3e920536	0.285196
2	0x3e94da8d	0.2907299
3	0x3e936d36	0.2879426
4	0x3e99dba3	0.30050382
5	0x3e969dec	0.2941736
6	0x3ea03271	0.31288484
7	0x3e98eca6	0.29868048
8	0x3e9cee4b	0.30650553
9	0x3f1d6868	0.61487436
10	0x3f277a01	0.6542054
11	0x3f35c2ed	0.7100056
12	0x3f1f1457	0.6214041
13	0x3f18c519	0.5967575
14	0x3f262a06	0.6490787
15	0x3f2b7f6e	0.6699132
16	0x3f24a24d	0.6431015
17	0x3f2327f4	0.6373284
18	0x3f59bfbf	0.85058206
19	0x3f4a407c	0.79004645
20	0x3f49dd2d	0.7885311
21	0x3f74b3a4	0.9558661
22	0x3f649084	0.89283013
23	0x3f7ad492	0.97980607
24	0x3f6f7f0a	0.9355322
25	0x3f61585b	0.88025445
26	0x3f8b2391	1.0870229
27	0x3b3c30eb	0.002871568
28	0x3bc5922e	0.006029389
29	0x3bda9ae8	0.0066712983
30	0x3b64265c	0.0034812903
31	0x3bdf02c3	0.006805749
32	0x3b7bf392	0.003844474
33	0x3c09950e	0.008397354
34	0x3c346834	0.011011172
35	0x3b3d1b4e	0.0028855386
36	0x3c0c59c8	0.008566327
37	0x3ca4bda7	0.020109965
38	0x3c6e8c87	0.0145598715
39	0x3b866f8d	0.0041026534
40	0x3c3b2d21	0.011424334
41	0x3c353749	0.011060544
42	0x3b840b89	0.0040296954
43	0x3ca14c42	0.019689683
44	0x3bef2da0	0.00729914
45	0x3e239600	0.15975189
46	0x3e8ea0e3	0.27857122
47	0x3e43f178	0.19135082
48	0x3e112868	0.1417557
49	0x3ea848f7	0.32868168
50	0x3e3d3ae7	0.184795
51	0x3e057f5c	0.13036865
52	0x3e92a630	0.28642416
53	0x3e23f8d8	0.16012895
54	0x3e63c66a	0.22243658
55	0x3ebbc4d3	0.36673602
56	0x3e9bbe9f	0.3041887
57	0x3e6028af	0.2189052
58	0x3ebef93c	0.37299526
59	0x3e956d2f	0.29184863
60	0x3e894e1e	0.2681741
61	0x3ea114ee	0.3146128
62	0x3e88e7ea	0.26739436
63	0x3d6f71fe	0.05845832
64	0x3e03751b	0.12837641
65	0x3df014e3	0.11722734
66	0x3d9165eb	0.070995174
67	0x3e29cf0e	0.16582891
68	0x3ddc4d97	0.107569866
69	0x3e305a52	0.17221954
70	0x3e02be7e	0.1276798
71	0x3d9f6ca2	0.07784392
72	0x3f16b6cd	0.5887268
73	0x3f174b0b	0.5909888
74	0x3f177840	0.5916786
75	0x3f10c791	0.56554514
76	0x3f0e01c6	0.55471456
77	0x3f1e4fa2	0.6184026
78	0x3f138b78	0.5763469
79	0x3f09ca7a	0.5382458
80	0x3f224a27	0.633944
81	0x3eb120d9	0.34595373
82	0x3ebb195f	0.36542794
83	0x3ea6853b	0.32523522
84	0x3ea63cea	0.3246835
85	0x3ea0706a	0.31335765
86	0x3ebaba21	0.3647013
87	0x3eab7126	0.33484763
88	0x3e97916b	0.29603133
89	0x3eabbd07	0.33542654
90	0x3f19f7c7	0.60143703
91	0x3f2081b1	0.62697893
92	0x3f2f73ff	0.6853637
93	0x3f0ec847	0.5577435
94	0x3f169c40	0.5883217
95	0x3f1dc339	0.6162601
96	0x3f2500da	0.64454424
97	0x3f14fdf6	0.58200014
98	0x3f24a329	0.6431146
99	0x3e9b5421	0.30337623
100	0x3ead7319	0.33876875
101	0x3eac572d	0.3366026
102	0x3ea79fdb	0.32739148
103	0x3e978f17	0.29601356
104	0x3ea85a77	0.3288152
105	0x3ecf1cbd	0.40451613
106	0x3ebd2978	0.369457
107	0x3e973315	0.2953116
108	0x3ed81dd0	0.42210245
109	0x3f01b2ff	0.5066375
110	0x3f106f71	0.56420046
111	0x3f08cd2b	0.5343806
112	0x3f0571f7	0.5212702
113	0x3efb7ad7	0.49117157
114	0x3f2074ad	0.62678033
115	0x3f250315	0.6445783
116	0x3f058aaf	0.5216474
117	0x3d28d37f	0.041217323
118	0x3d6e4397	0.058169927
119	0x3d251735	0.040305335
120	0x3d04be25	0.0324079
121	0x3d11540f	0.035480555
122	0x3d73d952	0.059533425
123	0x3d01dc9c	0.03170453
124	0x3d29735c	0.04136978
125	0x3d4dee5a	0.050276138
126	0x3f736334	0.95073247
127	0x3f6896ce	0.9085511
128	0x3f71ac2a	0.94403327
129	0x3f711dba	0.94185984
130	0x3f5cf177	0.86305946
131	0x3f70dd13	0.9408733
132	0x3f6a88ce	0.91615
133	0x3f5001da	0.81252825
134	0x3f668506	0.9004673
135	0x3bf97332	0.0076126093
136	0x3c849792	0.016185556
137	0x3c302eaa	0.010753313
138	0x3bdf4c67	0.006814528
139	0x3c161496	0.0091601815
140	0x3c33d3e4	0.010975812
141	0x3c8f94d3	0.01752702
142	0x3c8907a6	0.01672728
143	0x3bd0da7c	0.0063737016
144	0x3de4df9e	0.11175464
145	0x3ddcdd4d	0.10784397
146	0x3dd3e361	0.103461035
147	0x3dd90011	0.10595716
148	0x3dd9a4d3	0.10627141
149	0x3dd31407	0.10306554
150	0x3dd2a322	0.10285021
151	0x3dcc1784	0.09965423
152	0x3dbf4bb3	0.0934061
153	0x3ec47624	0.38371384
154	0x3ebfe025	0.37475696
155	0x3eb2b707	0.34905264
156	0x3ec71683	0.38884363
157	0x3ec3252c	0.38114297
158	0x3eba0743	0.36333665
159	0x3eb40fec	0.35168397
160	0x3eb11528	0.34586453
161	0x3eaddf40	0.3395939
162	0x3e6667f7	0.22500597
163	0x3e742b48	0.23844635
164	0x3e861db5	0.2619454
165	0x3e7117af	0.23544191
166	0x3e73d5f7	0.2381209
167	0x3e8150bb	0.25256905
168	0x3e80494e	0.25055927
169	0x3e8d5aa7	0.27608225
170	0x3e9a4dc7	0.30137464
171	0x3baae658	0.0052154474
172	0x3bbcd2bc	0.005762426
173	0x3b7fd1dc	0.0039034998
174	0x3bc04b14	0.005868325
175	0x3be3b908	0.0069495477
176	0x3bad5768	0.0052899607
177	0x3baec286	0.0053332476
178	0x3ba75833	0.0051069497
179	0x3b94f317	0.00454558
180	0x3b8ed4fe	0.0043588867
181	0x3baf146a	0.0053430097
182	0x3bb65150	0.0055638924
183	0x3b7042d8	0.0036660936
184	0x3bbb6000	0.005718231
185	0x3b814869	0.0039453995
186	0x3b8ef87d	0.004363118
187	0x3be98afb	0.0071271635
188	0x3b93d219	0.0045111296
189	0x3d976e09	0.073940344
190	0x3d9bbdef	0.07604586
191	0x3d8fd031	0.07022131
192	0x3d917d22	0.07103945
193	0x3d978154	0.07397714
194	0x3d91125f	0.07083582
195	0x3d908f27	0.07058554
196	0x3d9189dc	0.07106373
197	0x3d8e216a	0.06939967
198	0x3e441404	0.1914826
199	0x3e4040c0	0.187747
200	0x3e3cdb59	0.1844305
201	0x3e3a23c6	0.18177709
202	0x3e3bc607	0.1833726
203	0x3e389ec9	0.18029322
204	0x3e2e1463	0.16999964
205	0x3e2f3c7e	0.1711292
206	0x3e26441f	0.16236924
207	0x3d5c4992	0.0537811
208	0x3d7ad7e7	0.061241057
209	0x3d1b73a0	0.037952065
210	0x3d7531df	0.059862014
211	0x3d6d0e06	0.057874702
212	0x3d0d3984	0.03447868
213	0x3d6ee09d	0.058319677
214	0x3d4e3682	0.05034495
215	0x3cecd3ca	0.028909583
216	0x3ec6fe09	0.38865688
217	0x3ebe127b	0.37123474
218	0x3ec1327f	0.37733838
219	0x3ebcbbb0	0.36861944
220	0x3eb23f64	0.34813988
221	0x3eb2c1a3	0.34913358
222	0x3eadf724	0.33977616
223	0x3eadb0ac	0.33923852
224	0x3eb501b9	0.35352877
225	0x3dd86798	0.10566634
226	0x3dcf3448	0.10117394
227	0x3dcbb6f4	0.09947005
228	0x3dd43132	0.10360946
229	0x3dc85725	0.097822465
230	0x3dbf601b	0.093445025
231	0x3dc2fe85	0.09521202
232	0x3dbd7c41	0.09252215
233	0x3db31dbd	0.087459065
234	0x3eac8c85	0.33700958
235	0x3ea74401	0.3266907
236	0x3eac8256	0.33693188
237	0x3ea6f46e	0.3260836
238	0x3ea3ab88	0.31966805
239	0x3e9ec104	0.31006634
240	0x3e93618f	0.2878537
241	0x3e9078e7	0.2821724
242	0x3e91e7f7	0.28497288
243	0x3dc8b774	0.09800616
244	0x3db53ba5	0.08849267
245	0x3d904839	0.070450254
246	0x3dc58381	0.09644223
247	0x3db5d90e	0.088792905
248	0x3d97be28	0.07409316
249	0x3da0653a	0.078318074
250	0x3d93d7c3	0.07218888
251	0x3d89342c	0.06699404
252	0x3e00a814	0.12564117
253	0x3e033373	0.12812595
254	0x3df9d75d	0.121992804
255	0x3ddfc0c2	0.109254375
